…
c:\Users\Pig_Astronaut\anaconda3\lib\site-packages\torch\functional.py:445: UserWarning: torch.meshgrid: in an upcoming release, it will be required to pass the indexing argument. (Triggered internally at  ..\aten\src\ATen\native\TensorShape.cpp:2157.)
  return _VF.meshgrid(tensors, **kwargs)  # type: ignore[attr-defined]
=========================================================================================================
Layer (type (var_name))                                 Output Shape              Param #
=========================================================================================================
FasterRCNN (FasterRCNN)                                 [0, 4]                    --
├─GeneralizedRCNNTransform (transform)                  [4, 3, 800, 800]          --
├─BackboneWithFPN (backbone)                            [4, 256, 13, 13]          --
│    └─IntermediateLayerGetter (body)                   [4, 2048, 25, 25]         --
│    │    └─Conv2d (conv1)                              [4, 64, 400, 400]         (9,408)
│    │    └─FrozenBatchNorm2d (bn1)                     [4, 64, 400, 400]         --
│    │    └─ReLU (relu)                                 [4, 64, 400, 400]         --
│    │    └─MaxPool2d (maxpool)                         [4, 64, 200, 200]         --
│    │    └─Sequential (layer1)                         [4, 256, 200, 200]        (212,992)
│    │    └─Sequential (layer2)                         [4, 512, 100, 100]        1,212,416
│    │    └─Sequential (layer3)                         [4, 1024, 50, 50]         7,077,888
│    │    └─Sequential (layer4)                         [4, 2048, 25, 25]         14,942,208
│    └─FeaturePyramidNetwork (fpn)                      [4, 256, 13, 13]          --
│    │    └─ModuleList (inner_blocks)                   --                        (recursive)
│    │    └─ModuleList (layer_blocks)                   --                        (recursive)
│    │    └─ModuleList (inner_blocks)                   --                        (recursive)
│    │    └─ModuleList (layer_blocks)                   --                        (recursive)
│    │    └─ModuleList (inner_blocks)                   --                        (recursive)
│    │    └─ModuleList (layer_blocks)                   --                        (recursive)
│    │    └─ModuleList (inner_blocks)                   --                        (recursive)
│    │    └─ModuleList (layer_blocks)                   --                        (recursive)
│    │    └─LastLevelMaxPool (extra_blocks)             [4, 256, 200, 200]        --
├─RegionProposalNetwork (rpn)                           [1000, 4]                 --
│    └─RPNHead (head)                                   [4, 3, 200, 200]          --
│    │    └─Conv2d (conv)                               [4, 256, 200, 200]        590,080
│    │    └─Conv2d (cls_logits)                         [4, 3, 200, 200]          771
│    │    └─Conv2d (bbox_pred)                          [4, 12, 200, 200]         3,084
│    │    └─Conv2d (conv)                               [4, 256, 100, 100]        (recursive)
│    │    └─Conv2d (cls_logits)                         [4, 3, 100, 100]          (recursive)
│    │    └─Conv2d (bbox_pred)                          [4, 12, 100, 100]         (recursive)
│    │    └─Conv2d (conv)                               [4, 256, 50, 50]          (recursive)
│    │    └─Conv2d (cls_logits)                         [4, 3, 50, 50]            (recursive)
…
│    │    └─Conv2d (conv)                               [4, 256, 25, 25]          (recursive)
│    │    └─Conv2d (cls_logits)                         [4, 3, 25, 25]            (recursive)
│    │    └─Conv2d (bbox_pred)                          [4, 12, 25, 25]           (recursive)
│    │    └─Conv2d (conv)                               [4, 256, 13, 13]          (recursive)
│    │    └─Conv2d (cls_logits)                         [4, 3, 13, 13]            (recursive)
│    │    └─Conv2d (bbox_pred)                          [4, 12, 13, 13]           (recursive)
│    └─AnchorGenerator (anchor_generator)               [159882, 4]               --
├─RoIHeads (roi_heads)                                  [0, 4]                    --
│    └─MultiScaleRoIAlign (box_roi_pool)                [4000, 256, 7, 7]         --
│    └─TwoMLPHead (box_head)                            [4000, 1024]              --
│    │    └─Linear (fc6)                                [4000, 1024]              12,846,080
│    │    └─Linear (fc7)                                [4000, 1024]              1,049,600
│    └─FastRCNNPredictor (box_predictor)                [4000, 31]                --
│    │    └─Linear (cls_score)                          [4000, 31]                31,775
│    │    └─Linear (bbox_pred)                          [4000, 124]               127,100
=========================================================================================================
Total params: 41,447,786
Trainable params: 41,225,386
Non-trainable params: 222,400
Total mult-adds (G): 536.47
=========================================================================================================
Input size (MB): 19.66
Forward/backward pass size (MB): 5939.38
Params size (MB): 165.79
…
